app/weights/refined_autoencoder_with_metadata.pth (torch, 20254 bytes, 28 tensors)

encoder.0.weight f4 [32, 8]
-0.069678985 -0.15232575 -0.06461963 -0.21220239 0.25578812 -0.13987207 0.07571138 0.21871606
-0.23882057 0.4352081 0.30880457 -0.21416287 0.4080594 0.008935592 0.14306256 0.5612021
-0.003758112 -0.043208662 0.16857724 0.1581863 -0.17541118 0.37302056 -0.18440993 -0.35419497
-0.19004886 0.12573363 -0.3320068 -0.15190142 -0.14334531 0.4303246 -0.05270184 0.19773602
-0.86258245 0.1041572 -0.07861567 0.19699809 -0.14795938 0.020214543 0.71168584 0.5454892
-0.089475274 -0.1299236 0.09444826 -0.20803963 0.34027433 -0.21975522 -0.32133448 -0.15896203
-0.18174109 -0.18290555 -0.3113101 -0.26857224 0.07768524 -0.344501 -0.18645246 -0.29091153
-0.03257739 0.18760708 0.05748984 0.420959 0.09789806 0.031683587 0.17604703 0.7672422
-0.26392645 0.7551654 0.19190192 -0.15967032 -0.13412264 0.25641692 0.03463615 0.3440449
-0.48499712 -0.27412477 -0.6310938 -0.16256586 -0.06146272 0.11581349 -0.1413533 0.09582666
-0.2425516 -0.12366237 -0.098971896 -0.21743365 -0.078590445 0.15957884 -0.16521586 -1.166178
-0.14771868 -0.32259193 -0.06665674 0.09188227 0.49964017 -0.16090764 -0.7647038 0.4316148
0.004529072 -0.53904575 -0.21769054 0.31235728 0.4722225 0.3703462 -0.30420128 0.47342825
0.17700952 -0.074980825 -0.3244482 0.21958697 -0.08944932 -0.24674349 0.3396075 -0.7390192
-0.34162244 0.30931142 0.316815 0.4068714 0.059743922 -0.20719229 0.24581079 -0.4134046
0.3285922 -0.13892947 0.20991693 0.6423645 -0.104408875 -0.0065059005 0.022524629 -0.5558356
0.27083448 0.14768958 -0.009477553 -0.10055594 0.26750743 0.22802147 0.042891927 0.004550053
-0.2713107 -0.45743266 0.19186708 -0.09898369 0.18336159 0.44995052 0.08442213 -0.11586233
0.26623777 -0.0574265 0.33229098 0.1659032 0.51408386 0.21056707 -0.53000635 0.49432966
0.2060995 0.18080585 -0.12881322 0.13177344 0.12540846 0.12542601 -0.047716208 -0.8765626
0.89697886 0.31184876 0.3139364 0.07453819 0.17641836 -0.0729385 0.30675414 0.13166273
-0.005197954 0.044665255 -0.4399935 -0.2286793 -0.040200844 -0.15962274 0.1669478 -0.42233244
-0.248753 0.22030054 0.09161202 0.49268124 -0.33802843 0.14753567 0.5504302 -0.15687308
0.038210638 -0.70493275 -0.18324392 -0.076730825 0.34170315 0.15504047 0.41825372 0.3692765
0.22108352 0.3284245 -0.14515483 -0.24232255 0.016816532 0.47626397 0.06555289 -0.041331585
0.143022 0.20886831 -0.40566158 -0.12191673 -0.4075777 -0.43546933 0.16217047 0.050294615
-0.13103023 -0.030137492 0.14135401 -0.08009226 -0.34898603 0.57520044 0.051051714 0.09192094
-0.18696767 -0.30032158 -0.029181592 -0.20852739 0.08414112 -0.26141113 -0.22792295 -0.3067597
-0.27304688 -0.027688293 0.22169673 0.29912305 -0.072507724 0.4157805 -0.27310193 -0.21689291
0.12364021 0.11635561 0.3534462 -0.26246798 0.25722256 0.28987357 0.25950786 -0.9678624
-0.11975083 -0.06096904 -0.05575733 0.007649147 -0.1189054 -0.2625996 -0.21049872 0.2816517
0.08054423 0.13237451 -0.18168433 -0.35910034 -0.056731142 -0.39572066 -0.12249716 -0.11364884
00000000: dbb3 8ebd 48fb 1bbe 4c57 84bd 954b 59be
00000010: a9f6 823e a03a 0fbe 910e 9b3d 1af7 5f3e
00000020: 618d 74be 99d3 de3e a21b 9e3e 834d 5bbe
00000030: 29ed d03e 9766 123c fe7e 123e f1aa 0f3f
00000040: a84a 76bb 91fb 30bd 839f 2c3e 97fb 213e
00000050: fd9e 33be 8dfc be3e f5d5 3cbe 0b59 b5be
00000060: 2b9c 42be 51c0 003e ccfc a9be 0c8c 1bbe
00000070: 1dc9 12be 8253 dc3e e2dd 57bd 507b 4a3e
00000080: 34d2 5cbf 5f50 d53d 4101 a1bd deb9 493e
00000090: aa82 17be f898 a53c 0b31 363f 2ea5 0b3f
000000a0: d03e b7bd b10a 05be 176e c13d 5708 55be
000000b0: 7038 ae3e 8307 61be f485 a4be f1c6 22be
000000c0: 561a 3abe 984b 3bbe 0a64 9fbe 4d82 89be
000000d0: 7019 9f3d 6f62 b0be 65ed 3ebe 5bf2 94be
000000e0: df6f 05bd 121c 403e 777a 6b3d f087 d73e
000000f0: c77e c83d a6c6 013d ac45 343e fc69 443f
00000100: 5e21 87be 8552 413f f081 443e 9e80 23be
00000110: 7257 09be 1449 833e a3de 0d3d a726 b03e
00000120: 8b51 f8be 155a 8cbe 5d8f 21bf aa77 26be
00000130: 55c0 7bbd 9f2f ed3d ebbe 10be c540 c43d
00000140: 725f 78be b242 fdbd c7b1 cabd eda6 5ebe
00000150: 07f4 a0bd a368 233e 592e 29be 5245 95bf
00000160: 9143 17be c52a a5be 5483 88bd c62c bc3d
00000170: d6d0 ff3e f9c4 24be a1c3 43bf 9dfc dc3e
00000180: 9c68 943b e7fe 09bf 45ea 5ebe 4bed 9f3e
00000190: 26c7 f13e 049e bd3e 45c0 9bbe 3065 f23e
000001a0: fc41 353e 8c8f 99bd 131e a6be 68db 603e
000001b0: 3531 b7bd 53aa 7cbe 09e1 ad3e 5d30 3dbf
000001c0: 23e9 aebe 115e 9e3e 9335 a23e 7351 d03e
000001d0: 0bb6 743d 372a 54be d3b5 7b3e c5a9 d3be
000001e0: 3d3d a83e 8743 0ebe 77f4 563e 0072 243f
000001f0: 52d4 d5bd 732f d5bb 9285 b83c 3e4b 0ebf
00000200: d1aa 8a3e f03b 173e bd47 1bbc 46f0 cdbd
00000210: bcf6 883e 767e 693e 72af 2f3d 9c18 953b
00000220: 3ce9 8abe 9d34 eabe ce78 443e f6b7 cabd
00000230: 24c3 3b3e ea5f e63e 82e5 ac3d 3b49 edbd
00000240: 5150 883e 0d38 6bbd 0b22 aa3e 87e2 293e
00000250: 009b 033f e59e 573e 7fae 07bf c718 fd3e
00000260: bf0b 533e 2b25 393e 9de7 03be 9eef 063e
00000270: 136b 003e ad6f 003e 1272 43bd 6866 60bf
00000280: 68a0 653f a4aa 9f3e 46bc a03e 7ba7 983d
00000290: 04a7 343e c860 95bd e10e 9d3e 98d2 063e
000002a0: 9953 aabb eaf2 363d d446 e1be e82a 6abe
000002b0: a4a9 24bd 2574 23be 5df4 2a3e f53b d8be
000002c0: 1bb9 7ebe 7796 613e 159f bb3d b740 fc3e
000002d0: 1012 adbe 9713 173e fee8 0c3f 56a3 20be
000002e0: c282 1c3d 7976 34bf 4ba4 3bbe 0d25 9dbd
000002f0: b7f3 ae3e eec2 1e3e 5a25 d63e cf11 bd3e
00000300: b863 623e 4227 a83e 78a3 14be 6723 78be
00000310: d3c2 893c dfd8 f33e 9840 863d 4f4b 29bd
00000320: 5c74 123e 93e1 553e e0b2 cfbe 7baf f9bd
00000330: 06ae d0be d6f5 debe 0410 263e ba01 4e3d
00000340: ca2c 06be e7e2 f6bc 1bbf 103e 6907 a4bd
00000350: 4cae b2be 5640 133f 9a1b 513d 0c41 bc3d
00000360: 7474 3fbe c0c3 99be 3c0e efbc 3488 55be
00000370: 2e52 ac3d aed7 85be a264 69be 9b0f 9dbe
00000380: cdcc 8bbe 8fd2 e2bc 7804 633e a826 993e
00000390: ee7e 94bd 2fe1 d43e 04d4 8bbe 2d19 5ebe
000003a0: 1437 fd3d da4b ee3d e6f6 b43e 3462 86be
000003b0: adb2 833e 4f6a 943e 37de 843e d5c5 77bf
000003c0: ec3f f5bd acba 79bd cc61 64bd b2a5 fa3b
000003d0: ad84 f3bd 7473 86be fa8c 57be a734 903e
000003e0: 60f4 a43d 2f8d 073e 750b 3abe 00dc b7be
000003f0: ea5e 68bd e69b cabe cbdf fabd b9c0 e8bd

encoder.0.bias f4 [32]
-0.10985155 0.19120726 0.7773137 -0.7209152 2.7384217 -0.007891449 -0.3533373 0.05769589
0.27673253 -1.0003345 -0.1491131 0.23119013 0.8733961 -0.44477516 0.091607176 0.13190548
7.1306 4.2552876 0.18760659 0.8595923 0.6117495 0.21589372 2.1389155 0.6075712
-0.784643 -0.14048636 4.7594514 -0.25300542 -1.1000421 0.20453997 -0.2639554 0.005616529
00000000: d9f9 e0bd d6cb 433e 08fe 463f e68d 38bf
00000010: 4d42 2f40 234b 01bc a0e8 b4be 8752 6c3d
00000020: e3af 8d3e f60a 80bf 1bb1 18be 1bbd 6c3e
00000030: e396 5f3f 92b9 e3be 8b9c bb3d 3b12 073e
00000040: e02d e440 512b 8840 f11b 403e 3e0e 5c3f
00000050: 9d9b 1c3f 3e13 5d3e fee3 0840 c989 1b3f
00000060: 5dde 48bf a8db 0fbe 6d4d 9840 ed89 81be
00000070: 2ece 8cbf ed72 513e 2a25 87be dc0a b83b

encoder.2.weight f4 [32]
1.0 0.9718955 0.8960993 0.75467485 1.1039374 1.0 1.0 1.2162378
0.8738012 0.8889239 0.98194635 0.9395589 1.2664148 0.60042065 0.9027659 1.0128293
1.3000433 0.9704002 1.0064629 0.84340376 1.0732824 0.89250445 1.0390995 0.88722056
0.7503507 0.65762156 1.1386497 1.0 1.0952115 0.8880048 1.0 0.49171415
00000000: 0000 803f 25ce 783f c466 653f 5f32 413f
00000010: d24d 8d3f 0000 803f 0000 803f aead 9b3f
00000020: 6fb1 5f3f 8490 633f d660 7b3f ef86 703f
00000030: e119 a23f 2bb5 193f ab1b 673f 64a4 813f
00000040: d267 a63f 266c 783f c7d3 803f 4fe9 573f
00000050: 5161 893f 2c7b 643f 3601 853f e320 633f
00000060: fc16 403f e359 283f 46bf 913f 0000 803f
00000070: e42f 8c3f 4854 633f 0000 803f f5c1 fb3e

encoder.2.bias f4 [32]
0.20093632 -0.19944629 0.10295623 0.01652796 -0.063353956 0.013906657 -0.35310555 -0.15588199
0.013286646 0.03939678 0.001657227 -0.005237165 0.0052668876 -0.2056578 -0.14199267 -0.2111763
0.01760082 0.23941728 -0.06075453 0.23972498 0.112137675 0.0031736519 -0.078035794 -0.17644404
0.18011415 -0.004990409 0.1370635 -0.6088025 -0.024053711 0.14926976 -0.16684386 0.007085694
00000000: 40c2 4d3e a63b 4cbe b7da d23d a565 873c
00000010: b8bf 81bd bfd8 633c 40ca b4be 879f 1fbe
00000020: 3cb0 593c 855e 213d 5037 d93a 869c abbb
00000030: db95 ac3b f597 52be 8766 11be 9a3e 58be
00000040: 982f 903c ce29 753e bed9 78bd 777a 753e
00000050: 70a8 e53d 0bfd 4f3b 3bd1 9fbd bfad 34be
00000060: d86f 383e 9686 a3bb 605a 0c3e 7bda 1bbf
00000070: 4a0c c5bc 2cda 183e 1ed9 2abe 1c2f e83b

encoder.2.running_mean f4 [32]
0.0 1.893324 14.212475 6.764297 8.626465 0.0 0.0 14.521858
4.7424216 0.46142107 0.876736 2.0135887 21.864536 1.4599302 8.562176 16.76035
12.322747 15.927022 15.735954 6.5232983 3.801573 6e-45 17.903812 5.3669395
7.843875 3.6122162e-06 17.002834 0.0 18.381577 5.287983 0.0 8.2998804e-07
00000000: 0000 0000 7158 f23f 4c66 6341 1f75 d840
00000010: 0006 0a41 0000 0000 0000 0000 8859 6841
00000020: ebc1 9740 623f ec3e c571 603f a3de 0040
00000030: 92ea ae41 fede ba3f acfe 0841 3215 8641
00000040: f929 4541 15d5 7e41 78c6 7b41 dcbe d040
00000050: f94c 7340 0400 0000 023b 8f41 f8bd ab40
00000060: 0601 fb40 6769 7236 ce05 8841 0000 0000
00000070: 780d 9341 2837 a940 0000 0000 58cc 5e35

encoder.2.running_var f4 [32]
6e-45 4.9401965 107.33263 96.18778 31.90215 6e-45 6e-45 138.13376
36.587658 1.6225182 4.7823315 4.0182896 194.3614 10.205505 124.672615 313.2503
53.776497 158.45567 83.804146 23.261982 13.955561 6e-45 202.57509 28.353203
129.84914 1.7160688e-05 198.0441 6e-45 190.49455 57.658394 6e-45 1.6715734e-06
00000000: 0400 0000 1716 9e40 4eaa d642 2560 c042
00000010: 9a37 ff41 0400 0000 0400 0000 3e22 0a43
00000020: c359 1242 adae cf3f dc08 9940 d495 8040
00000030: 855c 4243 c049 2341 6158 f942 0aa0 9c43
00000040: 221b 5742 a774 1e43 b99b a742 8a18 ba41
00000050: fa49 5f41 0400 0000 3993 4a43 5cd3 e241
00000060: 61d9 0143 4cf4 8f37 4a0b 4643 0400 0000
00000070: 9b7e 3e43 32a2 6642 0400 0000 d35a e035

encoder.3.weight f4 [16, 32]
0.20989773 -0.24176972 0.011752858 0.016311789 -0.81881607 0.004017606 -0.2527404 -0.12367932
-0.23251738 -0.07312918 -0.20085122 0.29171732 0.2914466 -0.13610041 -0.22338289 -0.2976925
0.032656144 0.02326962 -0.030614534 0.008982265 0.5704169 -0.12617527 -0.43028527 0.14472924
0.015953813 -0.07401237 0.040102188 -0.11593346 -0.042456135 0.020652274 -0.15960613 -0.10790864
0.07266607 -0.17811212 0.30484265 -0.14042732 -0.17101815 0.037536312 -0.38649964 -0.075802654
0.20426077 -0.26771423 -0.04981168 -0.1977016 -0.96111256 -0.07962063 0.035834976 0.09958546
-0.07465489 -0.014130183 -0.70658594 0.55291015 -0.12792028 0.038957126 0.1318384 -0.22038661
-0.04435177 -0.13530695 0.09105732 -0.35475707 0.048771113 0.08886879 -0.30401963 -0.008332436
0.0877226 -0.23559368 -0.072676994 0.37715492 0.15795167 0.017804556 -0.052599482 0.11081293
0.16440146 -0.26881462 0.12449426 0.19493255 0.057149645 0.03861001 0.20572259 0.05667318
0.2421465 0.4363574 -0.12917666 -0.10137262 0.129479 0.0370506 -0.06672936 0.0029748965
0.3430883 -0.051263187 0.40098152 -0.16263737 -0.20194787 0.34328157 0.013711307 0.021720253
0.17850336 -0.060239293 0.026394414 0.036567602 -0.11263951 -0.059188694 -0.24011192 -0.020963978
-0.13612078 -0.002035808 0.38891703 0.1906484 0.0019445784 -0.028646933 -0.015606886 0.07176985
-1.0523602 -0.5858004 0.13625322 0.06305938 0.03135074 0.028150229 -0.23822537 -0.017252607
0.004861221 0.058279872 -0.5188863 -0.12195461 0.1352809 0.06563302 -0.113412425 0.0024935324
0.2676945 -0.007826651 -0.7108788 -0.1457058 0.10545095 -0.06569542 -0.20043969 0.097718745
-0.07856287 -0.39892632 -0.2576756 -0.08052333 -0.42285696 -0.08021607 0.05631038 0.18255754
0.11010774 -0.1636239 -0.18433133 -0.32173523 0.02964559 0.10876124 -0.1167962 -0.026184112
-0.40600544 0.07092905 -0.44371104 -0.17815073 -0.07734101 -0.14644349 -0.2305512 0.034101967
-0.10245929 -0.22447957 0.45437068 -0.11596905 -0.025521109 0.029058069 0.24396524 0.059696265
-0.07592549 0.123813756 0.37143004 0.03952648 0.23896514 -0.60483533 0.08511328 0.027287174
0.30941102 0.010549476 0.065743074 0.21405713 0.1010968 -0.2087664 0.008549275 0.14248267
-0.243639 0.13094287 0.45090654 0.26807135 0.027324717 -0.15063973 0.2976097 0.09431903
-0.04016181 -0.0039664498 0.0781063 -0.15635636 0.036508966 0.04392312 -0.186276 -0.20220518
-0.042340778 0.5758506 0.738516 0.34041545 -0.10750921 -0.14451522 -0.058490846 0.042898208
-0.046205588 0.16010563 -0.3202317 0.08736944 -0.03461564 0.0067527913 0.035128605 -0.03464988
0.17549652 -0.06630273 0.10972614 -0.11248635 0.048265155 0.44453648 -0.062995136 -0.01121125
0.2435938 -0.24479216 0.13650681 -0.026966313 -0.39485836 0.10695068 -0.34816495 -0.8159728
-0.12799837 -0.33135045 0.16961141 0.06333367 -0.20898058 -0.30398226 0.09955652 -0.1685333
0.05202856 0.07878534 0.09094776 -0.05600982 0.13917103 -0.10825735 -0.26519182 0.088439345
0.08438024 0.25855887 -0.06135015 -0.26793543 -0.22873816 -0.040821873 -0.3710222 0.02225994
00000000: 6eef 563e 7b92 77be 0f8f 403c 4da0 853c
00000010: ee9d 51bf 1fa6 833b 3167 81be 954b fdbd
00000020: 0919 6ebe c0c4 95bd f1ab 4dbe f95b 953e
00000030: 7d38 953e e85d 0bbe 7cbe 64be 276b 98be
00000040: 73c2 053d ee9f be3c 55cb fabc 5a2a 133c
00000050: d806 123f 1734 01be 5a4e dcbe e733 143e
00000060: 92b1 823c cc93 97bd 3142 243d 866e edbd
00000070: 7ce6 2dbd f52e a93c ca6f 23be 34ff dcbd
00000080: f3d1 943d 0663 36be 5614 9c3e 2ecc 0fbe
00000090: 621f 2fbe adbf 193d 48e3 c5be 6c3e 9bbd
000000a0: bc29 513e d711 89be 5507 4cbd 4a72 4abe
000000b0: 790b 76bf 2410 a3bd b2c7 123d 76f3 cb3d
000000c0: aae4 98bd 4882 67bc d1e2 34bf 858b 0d3f
000000d0: 89fd 02be 8291 1f3d a500 073e 07ad 61be
000000e0: 34aa 35bd e88d 0abe 437c ba3d b8a2 b5be
000000f0: 38c4 473d d700 b63d 76a8 9bbe c584 08bc
00000100: e8a7 b33d 783f 71be add7 94bd 731a c13e
00000110: 15be 213e dcda 913c 8e72 57bd e4f1 e23d
00000120: db58 283e 12a2 89be d9f6 fe3d 669c 473e
00000130: bf15 6a3d 8825 1e3d f1a8 523e 2322 683d
00000140: 41f5 773e 3d6a df3e e346 04be 739c cfbd
00000150: 2596 043e 5fc2 173d 67a9 88bd 7bf6 423b
00000160: 45a9 af3e 59f9 51bd 734d cd3e 698a 26be
00000170: 6ccb 4ebe 9ac2 af3e 64a5 603c acee b13c
00000180: 96c9 363e 7abd 76bd 1939 d83c e9c7 153d
00000190: 8baf e6bd d86f 72bd e6df 75be a6bc abbc
000001a0: 3f63 0bbe 316b 05bb 2220 c73e 5639 433e
000001b0: 39e1 fe3a f9ac eabc 06b4 7fbc 12fc 923d
000001c0: bdb3 86bf 04f7 15bf f785 0b3e 4725 813d
000001d0: a269 003d 4f9b e63c 5af1 73be 5755 8dbc
000001e0: e14a 9f3b e0b6 6e3d bcd5 04bf 57c3 f9bd
000001f0: 1487 0a3e 9b6a 863d c644 e8bd 886a 233b
00000200: 410f 893e 5b3b 00bc 27fc 35bf e733 15be
00000210: abf6 d73d 528b 86bd 1040 4dbe c420 c83d
00000220: 92e5 a0bd 1240 ccbe 0eee 83be 6ae9 a4bd
00000230: b580 d8be 5348 a4bd b7a5 663d 5df0 3a3e
00000240: 2b80 e13d 068d 27be 5ac1 3cbe 7bba a4be
00000250: 4fdb f23c 37be de3d d932 efbd 1080 d6bc
00000260: f2df cfbe 4043 913d 182e e3be 256d 36be
00000270: f764 9ebd 48f5 15be 9d15 6cbe 81ae 0b3d
00000280: 2dd6 d1bd f9dd 65be 46a3 e83e 2e81 edbd
00000290: a511 d1bc 300b ee3c 06d2 793e 1284 743d
000002a0: d37e 9bbd 1192 fd3d 142c be3e 85e6 213d
000002b0: 47b3 743e 7dd6 1abf df4f ae3d 5a89 df3c
000002c0: 1f6b 9e3e b6d7 2c3c 4ea4 863d cb31 5b3e
000002d0: d70b cf3d dcc6 55be 4212 0c3c fae6 113e
000002e0: 817c 79be e315 063e 39dd e63e a640 893e
000002f0: 16d8 df3c 4d41 1abe 4c60 983e 562a c13d
00000300: b680 24bd fef8 81bb 32f6 9f3d e21b 20be
00000310: 6d8a 153d bbe8 333d 23bf 3ebe e00e 4fbe
00000320: 866d 2dbd f26a 133f 620f 3d3f ef4a ae3e
00000330: ca2d dcbd ccfb 13be 1994 6fbd 08b6 2f3d
00000340: 1242 3dbd bbf2 233e 69f5 a3be c0ee b23d
00000350: 21c9 0dbd 8546 dd3b 03e3 0f3d 08ed 0dbd
00000360: 5cb5 333e bac9 87bd 19b8 e03d 3e5f e6bd
00000370: afb1 453d 499a e33e 9803 81bd 64af 37bc
00000380: a770 793e ccaa 7abe 71c8 0b3e 75e8 dcbc
00000390: e02a cabe f508 db3d ad42 b2be 98e3 50bf
000003a0: 0112 03be c4a6 a9be 9dae 2d3e 15b5 813d
000003b0: 01ff 55be 90a3 9bbe 4ae4 cb3d fe93 2cbe
000003c0: e61b 553d 355a a13d d242 ba3d 8e6a 65bd
000003d0: da82 0e3e 08b6 ddbd 39c7 87be b01f b53d
000003e0: 8ccf ac3d d461 843e 4b4a 7bbd d52e 89be
000003f0: 563a 6abe d634 27bd 9ff6 bdbe 7a5a b63c

encoder.3.bias f4 [16]
0.20729853 0.046480674 0.12760483 0.010112318 0.17049265 -0.10095713 -0.04254235 0.24931829
-0.18159609 1.5091602 -0.34073392 0.18709457 -0.23333797 0.11928464 0.06661049 0.10675494
00000000: 1146 543e 8562 3e3d d7aa 023e 23ae 253c
00000010: a095 2e3e 9dc2 cebd e340 2ebd 4b4d 7f3e
00000020: 53f4 39be 292c c13f ad74 aebe b895 3f3e
00000030: 26f0 6ebe 814b f43d 156b 883d 55a2 da3d

encoder.5.weight f4 [16]
0.7675003 0.9249635 1.0107812 1.0362304 0.70608103 0.8666611 0.8907393 0.8546916
0.8617797 1.3424829 0.5923955 1.1001241 0.9552456 0.84226537 0.9046234 0.9720109
00000000: e67a 443f 68ca 6c3f 4761 813f 33a3 843f
00000010: bac1 343f 80dd 5d3f 7e07 643f 12cd 5a3f
00000020: 989d 5c3f 7bd6 ab3f 3ba7 173f ded0 8c3f
00000030: fa8a 743f b49e 573f 6695 673f b5d5 783f

encoder.5.bias f4 [16]
0.28344265 -0.32720628 0.22346434 -0.021864278 0.22715114 -0.040546775 -0.019120857 -0.43299145
0.28383917 -0.028234383 -0.530354 0.06795225 0.31237227 -0.589259 0.2039512 0.52805716
00000000: 651f 913e 9587 a7be d6d3 643e b71c b3bc
00000010: 4f9a 683e 6014 26bd 58a3 9cbc 0eb1 ddbe
00000020: 5e53 913e cb4b e7bc 48c5 07bf 8d2a 8b3d
00000030: 42ef 9f3e aed9 16bf 95d8 503e c12e 073f

encoder.5.running_mean f4 [16]
0.9659566 1.0727999 0.7633712 0.94116104 1.2554833 0.6585823 0.5812694 1.4498982
0.4178554 4.183345 0.3905125 1.3061551 0.6325624 1.0802432 0.55209786 0.62972873
00000000: ef48 773f 8251 893f 4c6c 433f eeef 703f
00000010: adb3 a03f da98 283f 12ce 143f 4496 b93f
00000020: 25f1 d53e f6dd 8540 41f1 c73e 1730 a73f
00000030: 9cef 213f 6945 8a3f 4956 0d3f e735 213f

encoder.5.running_var f4 [16]
0.62223923 0.8192136 1.4731468 0.938381 1.0881373 1.4880866 2.0447466 1.3449827
0.5773125 1.2397822 0.25902575 4.755409 1.591659 0.63598037 1.1966994 1.2210121
00000000: 124b 1f3f fcb7 513f 1390 bc3f bd39 703f
00000010: 1548 8b3f 9f79 be3f 21dd 0240 6528 ac3f
00000020: c1ca 133f 2fb1 9e3f 069f 843e 4f2c 9840
00000030: 7bbb cb3f 9ccf 223f 722d 993f 204a 9c3f

encoder.6.weight f4 [8, 16]
-0.09472219 0.113694094 -0.2931967 0.21543576 0.128775 -0.22316797 -0.013729444 0.09508574
0.057319082 -0.32456598 0.1607658 -0.22617406 0.055749442 -0.038069684 -0.05276066 0.13916014
0.15786113 -0.057974074 -0.10326409 0.26267377 0.046387114 -0.12012262 -0.16558231 -0.37728134
0.09442507 -0.019150876 -0.048510898 -0.42755887 0.21310939 -0.25454536 0.22653762 0.2615058
-0.070976354 0.13489352 -0.1523816 -0.05165939 -0.34808275 -0.26683667 -0.18205392 0.22459576
-0.3728511 -0.36620972 0.20280209 0.011338942 -0.6945173 0.08573368 0.31337947 -0.37756076
0.25090516 -0.5182562 -0.048035204 0.09989948 0.253058 -0.29131022 -0.2139701 -0.15785332
-0.34418055 -0.25842556 0.04999206 0.072129525 -0.0573079 0.14238401 -0.15886892 -0.14194527
0.10885785 -0.03000871 0.18600015 -0.31046787 0.101576135 -0.16656584 0.13474195 -0.115566395
-0.0906836 -0.39731073 -0.15809512 0.30433494 -0.036180306 -0.22498071 0.16976441 0.2335354
0.07274737 0.032209888 0.26092288 -0.28032148 -0.12684853 0.025679627 0.35619232 0.037714615
-0.07491133 0.024361188 0.22849457 0.2411637 0.12593284 0.5262743 0.34011447 -0.2508202
0.6248632 0.058855273 0.18120621 0.07304853 -0.08876646 0.29400995 0.10134532 0.10853489
-0.06454189 0.10583797 -0.10188586 -0.19531861 -0.9263012 0.042919498 0.22192079 0.19437928
0.081010826 0.022432134 0.16762596 -0.12790598 -0.09400732 0.20234735 -0.15820476 -0.24307887
0.11327308 0.34532538 -0.0852568 0.23352815 0.21471779 -0.06712605 0.109576665 0.21371247
00000000: b5fd c1bd 73d8 e83d e11d 96be 319b 5c3e
00000010: 98dd 033e 2586 64be 76f1 60bc 50bc c23d
00000020: 6ac7 6a3d 832d a6be ca9f 243e 2c9a 67be
00000030: 8759 643d f5ee 1bbd 901b 58bd ff7f 0e3e
00000040: 59a6 213e 3976 6dbd 207c d3bd 2d7d 863e
00000050: 6a00 3e3d d902 f6bd 698e 29be 052b c1be
00000060: ee61 c13d 4ce2 9cbc 5db3 46bd ffe8 dabe
00000070: 5939 5a3e c553 82be 7af9 673e 17e4 853e
00000080: 0d5c 91bd 8721 0a3e ec09 1cbe cc98 53bd
00000090: e737 b2be d19e 88be 586c 3abe 6efc 653e
000000a0: 57e6 bebe d77f bbbe 5aab 4f3e f8c6 393c
000000b0: e3cb 31bf 2495 af3d 4673 a03e a54f c1be
000000c0: a476 803e 70ac 04bf 90c0 44bd 1998 cc3d
000000d0: d190 813e 9d26 95be fa1a 5bbe 4da4 21be
000000e0: 6f38 b0be 5b50 84be 79c4 4c3d a5b8 933d
000000f0: b0bb 6abd 1dcd 113e 89ae 22be 1a5a 11be
00000100: ddf0 de3d d4d4 f5bc d376 3e3e a5f5 9ebe
00000110: 2607 d03d 3c90 2abe cbf9 093e 13ae ecbd
00000120: 53b8 b9bd 506c cbbe b0e3 21be cad1 9b3e
00000130: cd31 14bd 5861 66be b9d6 2d3e e723 6f3e
00000140: 93fc 943d 84ee 033d af97 853e 4c86 8fbe
00000150: 95e4 01be 155e d23c d75e b63e a47a 1a3d
00000160: 1d6b 99bd 1d91 c73c 7bfa 693e 9ef3 763e
00000170: 8af4 003e eab9 063f 7c23 ae3e 816b 80be
00000180: 09f7 1f3f 3a12 713d 1f8e 393e 789a 953d
00000190: 31cb b5bd 7988 963e 238e cf3d 8a47 de3d
000001a0: 8a2e 84bd 94c1 d83d 89a9 d0bd 9a01 48be
000001b0: 1322 6dbf 5bcc 2f3d 343f 633e 5d0b 473e
000001c0: 01e9 a53d 98c3 b73c 24a6 2b3e c9f9 02be
000001d0: e986 c0bd 2534 4f3e 6e00 22be abe9 78be
000001e0: b7fb e73d 7dce b03e 1e9b aebd 0122 6f3e
000001f0: fbde 5b3e 6279 89bd bb69 e03d 71d7 5a3e

encoder.6.bias f4 [8]
-0.20524846 0.46368647 -0.063083194 -0.081207 0.3219107 -0.3199647 0.09866422 0.39562103
00000000: a72c 52be 5068 ed3e c331 81bd db4f a6bd
00000010: 7bd1 a43e 6ad2 a3be 7710 ca3d d78e ca3e

decoder.0.weight f4 [16, 8]
0.1472441 -0.11323567 0.27426967 -0.57833093 0.2761188 0.06360326 0.17334056 -0.23502152
-0.049195956 -0.2488639 0.045683324 0.017728845 0.47029874 0.27333722 -0.15648036 0.11687361
-0.3037156 -0.017753365 0.07880723 0.13328944 -0.40703732 -0.16230255 0.33301625 0.51536477
-0.34804904 -0.007187574 -0.10208119 0.22869302 -0.27656054 0.32635444 -0.113057084 0.19085605
0.14518027 0.3678247 0.08314263 -0.86888015 0.24514708 -0.19825703 -0.22465539 0.12491424
0.26479053 -0.11470482 0.39749774 0.25231123 0.35717362 0.07665288 0.06889139 0.41171575
-0.2682764 -0.12020563 0.03659158 -0.018425873 0.048878606 -0.09575775 -0.2911377 -0.31423822
-0.21233493 -0.28134218 -0.5107823 0.1619959 0.06499666 0.23146263 -0.015911873 -0.15888175
-0.2277441 0.44851103 -0.34845644 0.12872572 0.33856428 -0.28161845 0.509147 0.088204645
0.16876704 0.25631535 0.21862507 0.48911735 0.02065466 0.009820328 -0.22375745 0.06999766
0.062344473 0.21311627 -0.25044778 0.48797345 0.50619763 -0.43352827 -0.07652051 0.21751489
0.22592254 0.12886743 0.32597753 -0.3706842 0.15892492 -0.28607938 -0.5239634 0.20068666
-0.08982606 0.31458884 0.2467829 -0.23562168 0.18957996 -1.2446829 -0.051647358 0.018291036
-0.010986336 -0.23208576 0.15681982 -0.27876118 0.032855064 0.06442347 0.24038857 0.22978255
0.16980322 -0.042139642 -0.28492945 0.07092933 -0.40142763 0.033476245 0.1861729 -0.114237994
-0.0657872 0.08404745 -0.58404386 -0.26515886 -0.3624219 0.030141646 0.15526481 0.39504662
00000000: 28c7 163e 1ae8 e7bd 136d 8c3e 7f0d 14bf
00000010: 715f 8d3e 6d42 823d 3080 313e 7ba9 70be
00000020: b381 49bd 2ed6 7ebe 701e 3b3d 153c 913c
00000030: ffca f03e dbf2 8b3e 633c 20be 6e5b ef3d
00000040: 9c80 9bbe 816f 91bc af65 a13d 077d 083e
00000050: 3267 d0be a432 26be 1b81 aa3e f2ee 033f
00000060: 7c33 b2be be85 ebbb f10f d1bd 812e 6a3e
00000070: 5899 8dbe ee17 a73e 798a e7bd c56f 433e
00000080: 23aa 143e 8553 bc3e af46 aa3d ee6e 5ebf
00000090: d607 7b3e e403 4bbe 100c 66be 09d3 ff3d
000000a0: a092 873e 5cea eabd d384 cb3e f02e 813e
000000b0: 76df b63e 2ffc 9c3d ee16 8d3d 68cc d23e
000000c0: 865b 89be 5f2e f6bd 0de1 153d dbf1 96bc
000000d0: ef34 483d a41c c4bd 0010 95be d5e3 a0be
000000e0: 546e 59be 150c 90be a1c2 02bf 41e2 253e
000000f0: f81c 853d 8a04 6d3e 9e59 82bc e6b1 22be
00000100: c035 69be 3da3 e53e e268 b2be add0 033e
00000110: 4c58 ad3e 4b30 90be 7557 023f a3a4 b43d
00000120: 44d1 2c3e c43b 833e 40df 5f3e 976d fa3e
00000130: f633 a93c 71e5 203c ac20 65be ef5a 8f3d
00000140: eb5c 7f3d 273b 5a3e b13a 80be a8d7 f93e
00000150: 2b96 013f 6bf7 ddbe c9b6 9cbd 39bc 5e3e
00000160: 3d58 673e d3f5 033e 87e6 a63e 52ca bdbe
00000170: 37bd 223e ff78 92be 7722 06bf ce80 4d3e
00000180: baf6 b7bd ca11 a13e a8b4 7c3e cf46 71be
00000190: 4021 423e c551 9fbf 2e8c 53bd 15d7 953c
000001a0: 0800 34bc e4a7 6dbe 6095 203e c9b9 8ebe
000001b0: 0893 063d 74f0 833d 6c28 763e 1e4c 6b3e
000001c0: e5e0 2d3e 9e9a 2cbd 46e2 91be 6643 913d
000001d0: ec87 cdbe 631e 093d 1ca4 3e3e 9cf5 e9bd
000001e0: 71bb 86bd 1221 ac3d e683 15bf e7c2 87be
000001f0: 5d8f b9be 9deb f63c bdfd 1e3e 8d43 ca3e

decoder.0.bias f4 [16]
0.35941783 0.87301934 0.79024106 1.6684593 0.8029525 0.0070542786 -0.1644676 0.28743613
0.19906195 0.5459602 0.35422492 1.6352359 -0.20417696 0.36706823 -0.43831939 1.9542137
00000000: 9d05 b83e 327e 5f3f 3d4d 4a3f 1390 d53f
00000010: 4c8e 4d3f 9427 e73b 326a 28be d42a 933e
00000020: e5d6 4b3e 0cc4 0b3f f85c b53e 694f d13f
00000030: c413 51be 5ef0 bb3e 666b e0be ad23 fa3f

decoder.2.weight f4 [16]
0.97546077 1.2472413 0.6513612 0.8614959 0.8759175 0.7022838 0.9682347 0.9519855
0.7979811 0.9360816 0.992328 0.92631483 1.0486844 0.8756518 0.8661757 0.915822
00000000: ccb7 793f 9aa5 9f3f 9cbf 263f ff8a 5c3f
00000010: 213c 603f dfc8 333f 3bde 773f 52b5 733f
00000020: 7d48 4c3f 0ba3 6f3f 3509 7e3f f822 6d3f
00000030: 4a3b 863f b72a 603f b1bd 5d3f 5073 6a3f

decoder.2.bias f4 [16]
-0.53464746 -0.30554983 0.40391243 0.0873724 0.45293897 0.3805677 -1.1389599 -0.17997612
0.23811078 0.33995202 0.39081535 0.13348238 -0.22411624 -0.16262843 0.6760507 -0.14020748
00000000: a8de 08bf 0771 9cbe 9ccd ce3e 4df0 b23d
00000010: 9ee7 e73e c5d9 c23e 70c9 91bf a94b 38be
00000020: 50d3 733e 310e ae3e f318 c83e 9baf 083e
00000030: ba7e 65be 1188 26be a911 2d3f 8d92 0fbe

decoder.2.running_mean f4 [16]
0.28874806 1.0828189 0.9898755 1.5801309 1.264924 0.92115176 6e-45 0.07011742
1.1313978 1.17075 1.2905773 1.9346029 0.29479524 0.40751347 6e-45 1.9549423
00000000: c9d6 933e cf99 8a3f 7b68 7d3f bb41 ca3f
00000010: 08e9 a13f 9ad0 6b3f 0400 0000 b999 8f3d
00000020: a5d1 903f 23db 953f a331 a53f 11a1 f73f
00000030: 67ef 963e 9ba5 d03e 0400 0000 8d3b fa3f

decoder.2.running_var f4 [16]
0.043127835 0.2568486 0.39360467 0.16794308 0.5454522 0.20458733 6e-45 0.01855231
0.34822506 0.11808155 0.2034548 0.22374341 0.16232985 0.16739242 6e-45 0.5427306
00000000: d0a6 303d a981 833e 8d86 c93e 45f9 2b3e
00000010: c1a2 0b3f 577f 513e 0400 0000 04fb 973c
00000020: 8e4a b23e bdd4 f13d 7556 503e fe1c 653e
00000030: cc39 263e eb68 2b3e 0400 0000 65f0 0a3f

decoder.3.weight f4 [32, 16]
0.027082993 -0.5361667 0.18947974 -0.25915876 0.17393062 -0.09281094 -1.5470654 -0.11067186
0.21580674 -0.12713905 0.17156231 -0.20211503 -0.25950903 0.11609956 0.67113966 0.041756783
0.11193454 -0.4445457 -0.14107947 -0.008691237 0.4168232 0.13410616 -1.0084633 0.26541376
0.34821138 0.057574093 0.21902522 0.08159064 -0.18564971 -0.01810912 0.25580144 -0.069740064
0.09634832 0.0814767 -0.486307 -0.34890184 0.14821899 0.13562356 -1.6565838 -0.31529266
-0.00250283 0.032860357 0.022475164 -0.101085745 0.18252577 0.110025026 0.7702276 -0.5719658
0.18045089 -0.29113463 -0.0047590076 0.11063061 0.2556734 -0.07874138 -0.9158842 -0.06671564
0.4173844 0.46585673 0.120340444 -0.19211295 -0.2999925 0.19661815 0.37121558 -0.036522727
-0.32694548 -0.074668586 0.21738213 0.12842311 -0.3074604 0.053616464 -0.5496326 0.30537948
0.11691002 0.2328837 -0.067307554 -0.3199425 -0.31671157 -0.19762626 0.002958393 -0.18267053
-0.1754207 0.5718267 -0.120806314 0.12459349 0.17351025 0.26785994 -1.5269642 0.13564658
-0.38092783 0.14147995 0.02219311 -0.021209778 0.0124766845 0.5268707 0.77770704 -0.22386307
-0.74454546 0.27355045 0.11943966 -0.05875369 0.029630415 -0.02077885 -1.4201844 0.018930737
0.058780182 -0.030773042 0.089596584 -0.01862115 -0.20228915 -0.23704247 0.85105765 -0.18007334
-0.2900083 0.035190642 0.1572289 0.09187363 -0.26142952 -0.03704111 -1.8038785 0.27092603
-0.09041513 0.30571935 -0.18682188 -0.032478597 -0.1716193 0.037204936 0.8851099 -0.25567132
-0.009460071 0.34957322 0.025036262 -0.1566142 -0.34109795 0.13819332 -0.4838352 0.4852725
0.26267675 0.12647001 0.11239989 -0.122348145 0.2237783 -0.071714394 -0.008770191 -0.18413527
-0.07605687 -0.76498973 0.11719726 0.10438602 0.09068819 -0.20575368 -0.7056301 -0.0033758765
0.004672023 -0.29034624 -0.28038168 0.06320256 -0.100048594 0.08055991 0.25595212 -0.020504903
-0.29342672 -0.09123829 0.14924116 0.4328648 0.0014888016 -0.0054835016 -0.1809134 -0.109666266
0.0861248 0.16332357 0.02617324 -0.26384896 -0.41019896 -0.16861539 0.021979721 0.19999294
-0.12813036 -0.18681274 0.25726545 0.26776922 -0.068655975 -0.08544091 -1.6066194 0.091610104
-0.24138723 0.35728726 -0.0045272927 0.27941698 0.557312 -0.14394407 0.74005413 -0.11466627
0.21617776 0.10091052 -0.10995246 -0.06294224 0.1969974 -0.10395442 -0.41051733 0.14937049
-0.10605239 0.27900484 0.4439394 0.19084215 0.2654952 -0.08416407 0.10762985 0.27242395
-0.000387961 0.610797 0.26431942 -0.34171376 0.12004869 -0.064282 -0.7468797 0.2814623
-0.16357692 -0.011360638 0.025672903 0.27424234 0.011469894 0.35441104 0.21687485 -0.087715134
-0.2932888 -0.082766294 -0.03933104 -0.34782615 -0.11759379 -0.037659425 -0.43684465 0.29629862
0.094378196 0.09197664 0.2725281 -0.14905474 -0.00044585863 -0.1897482 0.01744238 -0.0065565784
-0.2976979 0.21318924 -0.14069022 0.12733248 -0.036891766 0.09573775 -1.0466844 0.009645108
0.14202285 0.09680266 0.10467862 -0.17894581 -0.15701222 -0.74804705 0.5539085 -0.3037562
00000000: 27dd dd3c 3942 09bf fa06 423e 75b0 84be
00000010: de1a 323e aa13 bebd 3d06 c6bf eea7 e2bd
00000020: 71fc 5c3e bd30 02be 08ae 2f3e 3ef7 4ebe
00000030: 5ede 84be 9bc5 ed3d cfcf 2b3f 2909 2b3d
00000040: f03d e53d 7e9b e3be 2377 10be b165 0ebc
00000050: da69 d53e 2053 093e 5315 81bf 50e4 873e
00000060: c348 b23e d0d2 6b3d 2648 603e fe18 a73d
00000070: f51a 3ebe 9459 94bc 68f8 823e e1d3 8ebd
00000080: 4552 c53d 42dd a63d 3bfd f8be 43a3 b2be
00000090: b8c6 173e e7e0 0a3e f00a d4bf 0a6e a1be
000000a0: 8506 24bb 9598 063d d61d b83c 0b06 cfbd
000000b0: 09e8 3a3e cd54 e13d a32d 453f 5a6c 12bf
000000c0: 1ec8 383e 990f 95be 73f1 9bbb 4d92 e23d
000000d0: a0e7 823e 2943 a1bd 6377 6abf 36a2 88bd
000000e0: 68b3 d53e c684 ee3e 0d75 f63d 42b9 44be
000000f0: 9e98 99be 4556 493e f80f be3e db98 15bd
00000100: 6665 a7be d8eb 98bd 6c99 5e3e 5981 033e
00000110: 736b 9dbe f09c 5b3d b9b4 0cbf b35a 9c3e
00000120: 856e ef3d 1179 6e3e 8bd8 89bd 81cf a3be
00000130: 0528 a2be 8a5e 4abe 99e1 413b fc0d 3bbe
00000140: 7ca1 33be 3c63 123f 4d69 f7bd df2a ff3d
00000150: acac 313e f024 893e 9073 c3bf f0e6 0a3e
00000160: f908 c3be 1fe0 103e 53ce b53c 21c0 adbc
00000170: 026b 4c3c 00e1 063f cf17 473f 5c3c 65be
00000180: 889a 3ebf ce0e 8c3e c89c f43d b6a7 70bd
00000190: 7cbb f23c 6838 aabc 9ac8 b5bf a214 9b3c
000001a0: 7dc3 703d bf17 fcbc 6a7e b73d 628b 98bc
000001b0: e324 4fbe 43bb 72be eade 593f 2565 38be
000001c0: f87b 94be 1024 103d 9d00 213e 3e28 bc3d
000001d0: 17da 85be 6bb8 17bd 7ee5 e6bf d1b6 8a3e
000001e0: 912b b9bd 3f87 9c3e 3c4e 3fbe 4708 05bd
000001f0: f8bc 2fbe 3464 183d 9096 623f 5ae7 82be
00000200: 6afe 1abc 43fb b23e d918 cd3c 795f 20be
00000210: 64a4 aebe 8d82 0d3e 3fb9 f7be a375 f83e
00000220: 917d 863e 5b81 013e ea31 e63d aa91 fabd
00000230: 2426 653e ffde 92bd d9b0 0fbc f58d 3cbe
00000240: b4c3 9bbd 5ed6 43bf 1e05 f03d 56c8 d53d
00000250: bbba b93d 18b1 52be 2da4 34bf cf3d 5dbb
00000260: c517 993b 43a8 94be 308e 8fbe 5870 813d
00000270: 47e6 ccbd 98fc a43d 280c 833e e6f9 a7bc
00000280: 073c 96be 24db babd add2 183e 74a0 dd3e
00000290: e423 c33a f2ae b3bb 5d41 39be b598 e0bd
000002a0: 3362 b03d 4b3e 273e 4369 d63c 3617 87be
000002b0: 9905 d2be 83a9 2cbe d10e b43c f3ca 4c3e
000002c0: 9b34 03be d74b 3fbe 4cb8 833e 0c19 893e
000002d0: 819b 8cbd a5fb aebd b4a5 cdbf 149e bb3d
000002e0: 372e 77be 5bee b63e af59 94bb be0f 8f3e
000002f0: 00ac 0e3f 1366 13be 3074 3d3f 26d6 eabd
00000300: b45d 5d3e 2daa ce3d c12e e1bd dce7 80bd
00000310: b0b9 493e 0ee6 d4bd 542f d2be 94f4 183e
00000320: ff31 d9bd b9d9 8e3e 064c e33e 206c 433e
00000330: fdee 873e 365e acbd 0a6d dc3d 277b 8b3e
00000340: 3e67 cbb9 315d 1c3f e054 873e 1bf5 aebe
00000350: 16dc f53d 48a6 83bd 8233 3fbf d41b 903e
00000360: b580 27be f821 3abc fb4f d23c 7e69 8c3e
00000370: 39ec 3b3c 5d75 b53e 7114 5e3e fea3 b3bd
00000380: f329 96be 6081 a9bd 9619 21bd 4516 b2be
00000390: 03d5 f0bd c540 1abd 1aaa dfbe 74b4 973e
000003a0: 5b49 c13d 405e bc3d ce88 8b3e cea1 18be
000003b0: 22c2 e9b9 5a4d 42be 52e3 8e3c 91d8 d6bb
000003c0: dc6b 98be 484e 5a3e 1911 10be 7263 023e
000003d0: d21b 17bd 2712 c43d c1f9 85bf 8406 1e3c
000003e0: 706e 113e 7940 c63d bf61 d63d 923d 37be
000003f0: d0c7 20be 0380 3fbf f3cc 0d3f ef85 9bbe

decoder.3.bias f4 [32]
1.3104479 0.47907448 1.2265286 0.57037383 0.15356846 1.0546576 1.5621848 1.0257949
-0.08643109 0.4254209 0.15824364 0.9927042 0.2550585 0.6631398 0.0841805 1.036037
1.1151918 0.2720389 0.7709638 0.5174978 0.8535794 1.1178399 0.8864266 0.94379765
0.9217939 0.045135405 0.022767719 0.5422702 1.0326749 0.39262494 0.050634127 0.26991367
00000000: c2bc a73f 4049 f53e e4fe 9c3f 0504 123f
00000010: 0d41 1d3e 05ff 863f acf5 c73f 3f4d 833f
00000020: c902 b1bd c5d0 d93e 9f0a 223e dd21 7e3f
00000030: 0797 823e 88c3 293f d366 ac3d dc9c 843f
00000040: 9bbe 8e3f af48 8b3e e25d 453f bc7a 043f
00000050: 2e84 5a3f 6115 8f3f dbec 623f b99c 713f
00000060: affa 6b3f e7df 383d 5e83 ba3c 38d2 0a3f
00000070: b12e 843f 2306 c93e bb65 4f3d 2032 8a3e

decoder.5.weight f4 [32]
2.1845393 2.0204973 1.7153153 2.1523468 1.6449722 2.1260393 1.812169 1.7164824
1.7341472 2.3279948 1.6898671 1.6885698 1.9059664 2.1879761 1.847771 2.1143813
1.7285752 1.8182263 1.6221079 1.6405709 2.2657137 1.6025515 1.7097143 1.6348951
1.7749327 1.9073434 1.7419714 1.5625664 2.1573346 1.9385775 1.7079526 1.7876776
00000000: 7ecf 0b40 d44f 0140 748f db3f 0dc0 0940
00000010: 738e d23f 0711 0840 27f5 e73f b2b5 db3f
00000020: 89f8 dd3f defd 1440 914d d83f 0e23 d83f
00000030: b5f6 f33f cd07 0c40 c383 ec3f 0652 0740
00000040: f441 dd3f a4bb e83f 3ba1 cf3f 3afe d13f
00000050: 7401 1140 6820 cd3f ebd7 da3f 3e44 d13f
00000060: ff30 e33f d423 f43f ebf8 de3f 2d02 c83f
00000070: c511 0a40 4f23 f83f 319e da3f 9fd2 e43f

decoder.5.bias f4 [32]
-1.2697835 1.2360588 -1.205215 1.0370456 -1.0740175 0.9908742 1.1990359 -1.1685117
1.3196627 -0.8868929 1.1844344 -1.0760396 1.1147342 -1.2634007 -1.1040895 -1.182979
1.2704712 1.2991109 1.2432694 -1.0623727 0.934549 1.0993404 -1.152999 1.1648062
-1.1292354 -1.1776867 1.187751 1.0786593 1.2645434 -1.2235125 1.1149888 -1.237784
00000000: 4488 a2bf 2d37 9e3f 7c44 9abf e9bd 843f
00000010: 6879 89bf eea9 7d3f 027a 993f cb91 95bf
00000020: b5ea a83f 6a0b 63bf 8c9b 973f aabb 89bf
00000030: 9caf 8e3f 1db7 a1bf ce52 8dbf db6b 97bf
00000040: cd9e a23f 4449 a63f 7423 9f3f d4fb 87bf
00000050: 9a3e 6f3f 30b7 8c3f 7995 93bf 5f18 953f
00000060: c98a 90bf 70be 96bf 3a08 983f 8211 8a3f
00000070: 8fdc a13f 0f9c 9cbf f4b7 8e3f b56f 9ebf

decoder.5.running_mean f4 [32]
3.8777084 2.2626388 3.529872 2.2793765 1.0604885 3.2558298 4.238374 3.7815015
0.34206206 1.505943 0.82512724 3.50775 0.8210102 1.4759218 0.80288774 2.9493883
3.6949823 1.3326616 2.5886338 1.1461681 2.2161617 3.490189 2.7648928 3.3870373
2.5085201 1.1405131 0.92725444 2.3137622 2.9307315 1.5704635 0.81234586 1.4250062
00000000: 602c 7840 13cf 1040 6ce9 6140 4ee1 1140
00000010: 16be 873f 845f 5040 c3a0 8740 1f04 7240
00000020: c222 af3e bdc2 c03f 8a3b 533f fa7e 6040
00000030: b92d 523f 01eb bc3f 0d8a 4d3f c7c2 3c40
00000040: 977a 6c40 a894 aa3f 2dac 2540 a3b5 923f
00000050: 98d5 0d40 425f 5f40 01f4 3040 38c5 5840
00000060: 988b 2040 55fc 913f 8c60 6d3f ae14 1440
00000070: 1b91 3b40 f304 c93f e6f5 4f3f 9a66 b63f

decoder.5.running_var f4 [32]
0.55726075 0.7206516 1.0193193 0.5392218 0.37246263 1.8696522 0.34332797 0.31610283
0.27006343 0.33992475 0.22397956 1.3609325 0.97343266 1.099035 0.27419427 0.38294908
0.3914623 0.6788473 4.1002727 0.38920912 0.37104324 2.2109504 0.9769966 1.9098192
0.23253249 0.6761701 1.7070171 2.7338872 0.5421814 1.4757915 1.7557948 0.39087537
00000000: a4a8 0e3f a07c 383f 0e79 823f 710a 0a3f
00000010: 6cb3 be3e c350 ef3f afc8 af3e 3bd8 a13e
00000020: c145 8a3e 9e0a ae3e e65a 653e 0933 ae3f
00000030: e232 793f 2ead 8c3f 3163 8c3e e711 c43e
00000040: bf6d c83e f0c8 2d3f 6f35 8340 6b46 c73e
00000050: 61f9 bd3e 3680 0d40 731c 7a3f f574 f43f
00000060: ff1c 6e3e 7c19 2d3f 897f da3f 02f8 2e40
00000070: 66cc 0a3f bce6 bc3f e2bd e03f d120 c83e

decoder.6.weight f4 [8, 32]
0.197129 -0.015414164 0.3342663 0.7004973 -0.455934 0.23922877 0.40749437 -0.02258598
0.6023098 0.29869413 -0.13254422 -0.36138055 -0.3581161 0.3196984 -0.0152525455 0.26070446
-0.27335447 0.637437 0.42499003 0.4667692 0.5558212 0.25547954 -0.25864407 0.085625365
-0.118552364 0.31444758 -0.616821 -0.079740815 -0.08327039 0.6751606 0.45732433 0.55040723
-0.5033549 0.4552542 0.7769935 0.5442829 0.5532908 0.60310495 0.05445519 -0.33369836
0.20826814 0.97180384 0.9683168 -0.43412766 0.5749072 1.2527746 -0.13906813 0.53960645
-0.65119314 0.21531603 0.25161195 0.3640847 0.6702911 0.26435348 -0.21961057 -0.32026774
-0.19490272 -0.32248175 -0.14935474 -0.14182292 0.3968701 0.50015396 -0.18595569 0.28073022
-0.30630267 0.3196664 -0.033167265 0.6338677 0.17811942 0.48027238 0.3782608 -0.33414805
0.063961186 0.25547424 0.06934959 0.061771262 0.39841178 -0.2447628 -0.054528877 -0.021580124
-0.2056024 0.06444196 0.17478801 -0.09077738 0.3429564 0.08425472 -0.02206354 0.19716023
-0.1796442 -0.24948119 0.06576572 -0.13100883 0.4279623 -0.031604424 -0.26329038 0.08612791
0.07566243 1.1320667 -0.7794671 1.1322541 -1.2244064 -0.5497716 1.0326828 -1.1051822
0.18470967 0.81102407 0.911479 -0.79716533 1.0858049 -1.1931039 -0.1735708 0.18637308
1.0387558 0.73965466 1.0550735 -0.72313297 -0.57075167 1.12653 -1.1407436 0.96545076
-0.620161 -0.758902 1.1074117 1.069408 1.2154934 -0.36609426 0.8509356 -1.1129183
-0.49093002 0.32609144 -0.21087039 0.52713996 0.11186021 0.61495185 0.2134771 -0.028112022
0.06947745 0.03478152 0.16406067 -0.20263423 0.2729423 0.0009205571 0.2936225 -0.33579972
0.066149585 0.08016551 0.18927331 0.1370177 0.62252885 -0.079352215 0.26193106 -0.246026
-0.328685 -0.4180432 0.39226696 0.095843256 0.27291167 -0.2842036 0.28029576 0.12085389
-1.0746199 -0.13852346 -1.0176475 -0.6527171 -0.4994608 1.175042 0.729188 -0.4338932
1.0649463 -1.1666019 1.0387905 -1.1187862 0.2783347 0.54043937 -1.1017075 -1.1693841
0.82761383 1.1089693 0.8214526 -1.1582676 1.1058875 0.64095116 -0.46424747 0.96812046
-1.0467805 -1.1144325 0.71444625 0.7669817 -0.51812094 -1.1590611 1.0748502 -0.47579125
-0.4421629 0.40158007 0.05851265 0.17428817 0.07363976 0.18877172 0.31531185 -0.21687247
-0.6305144 -0.072316445 -0.34077373 -0.9111543 0.46468404 0.2969621 0.3911787 0.22129118
0.012031138 -0.3731699 -0.03357798 -0.11303573 0.40139565 -0.20924337 0.1307654 0.3788718
-0.48302236 0.36494583 0.7179835 0.050606597 -0.06963044 0.22450435 -0.32598072 0.42448413
-0.36090666 0.42392328 0.41057467 0.6843895 0.18668304 0.50105387 0.33937022 -0.12248008
0.15996744 0.21946476 -0.0037491238 0.3638032 -0.037237067 0.16738965 -0.7952877 0.3306467
-0.5096564 -0.06162363 0.34648693 -0.9905625 0.48664588 -0.08791556 0.33195573 0.16024204
0.08885988 0.029816404 -0.31378394 0.248779 0.15859213 0.211213 -0.75056577 0.04398129
00000000: 2fdc 493e b18b 7cbc f424 ab3e cb53 333f
00000010: 2e70 e9be 63f8 743e 1aa3 d03e 3c06 b9bc
00000020: fa30 1a3f 70ee 983e acb9 07be df06 b9be
00000030: fe5a b7be 82af a33e d0e5 79bc 0e7b 853e
00000040: 1ef5 8bbe 122f 233f 4b98 d93e 5ffc ee3e
00000050: 4c4a 0e3f 37ce 823e ff6c 84be 5a5c af3d
00000060: 95cb f2bd 46ff a03e fbe7 1dbf 274f a3bd
00000070: ab89 aabd 53d7 2c3f 6a26 ea3e 7de7 0c3f
00000080: dedb 00bf 1417 e93e 0ce9 463f 2056 0b3f
00000090: 77a4 0d3f 1665 1a3f 680c 5f3d 83da aabe
000000a0: 3e44 553e 23c8 783f 9ce3 773f fb45 debe
000000b0: 1e2d 133f eb5a a03f e067 0ebe a623 0a3f
000000c0: 98b4 26bf ce7b 5c3e 48d3 803e 4f69 ba3e
000000d0: 3398 2b3f 5759 873e 98e1 60be 22fa a3be
000000e0: 9494 47be 541c a5be 73f0 18be 073a 11be
000000f0: 8f32 cb3e 170a 003f 2b6b 3ebe dfbb 8f3e
00000100: b4d3 9cbe 50ab a33e 66da 07bd 2745 223f
00000110: f064 363e 43e6 f53e 66ab c13e 7415 abbe
00000120: 15fe 823d 85cd 823e 2807 8e3d dd03 7d3d
00000130: a1fc cb3e 19a3 7abe ac59 5fbd cdc8 b0bc
00000140: 6f89 52be 25fa 833d a1fb 323e 7ee9 b9bd
00000150: fb97 af3e bd8d ac3d 99be b4bc 5fe4 493e
00000160: a6f4 37be ff77 7fbe 2eb0 863d 2e27 06be
00000170: e01d db3e a473 01bd ffcd 86be d463 b03d
00000180: e7f4 9a3d 90e7 903f 288b 47bf b4ed 903f
00000190: 59b9 9cbf d5bd 0cbf f32e 843f 9c76 8dbf
000001a0: 8824 3d3e 469f 4f3f b056 693f 0713 4cbf
000001b0: a8fb 8a3f a1b7 98bf 8bbc 31be 96d8 3e3e
000001c0: f3f5 843f 025a 3d3f a60c 873f 3e1f 39bf
000001d0: c81c 12bf 2332 903f e303 92bf c827 773f
000001e0: dfc2 1ebf 6747 42bf abbf 8d3f 5de2 883f
000001f0: 4a95 9b3f b570 bbbe ead6 593f 1b74 8ebf
00000200: 2e5b fbbe 75f5 a63e 68ee 57be a5f2 063f
00000210: f716 e53d 7c6d 1d3f be99 5a3e 2f4b e6bc
00000220: 314a 8e3d 1177 0e3d 85ff 273e 597f 4fbe
00000230: 18bf 8b3e 8b51 713a b055 963e f1ed abbe
00000240: 6f79 873d d12d a43d ddd0 413e 5e4e 0c3e
00000250: 0d5e 1f3f 6a83 a2bd d41b 863e 3dee 7bbe
00000260: 6649 a8be c209 d6be 37d7 c83e 7849 c43d
00000270: 14bb 8b3e 2283 91be ed82 8f3e 3f82 f73d
00000280: 258d 89bf 18d9 0dbe 4642 82bf 7818 27bf
00000290: 53b9 ffbe c767 963f 11ac 3a3f 4027 debe
000002a0: 2950 883f 3653 95bf 16f7 843f 6334 8fbf
000002b0: e381 8e3e 3c5a 0a3f c004 8dbf 61ae 95bf
000002c0: 80de 533f b5f2 8d3f b84a 523f 1d42 94bf
000002d0: b98d 8d3f 6015 243f d8b1 edbe bed6 773f
000002e0: e7fc 85bf b9a5 8ebf f3e5 363f ea58 443f
000002f0: 93a3 04bf 1d5c 94bf b194 893f e99a f3be
00000300: 2d63 e2be e79b cd3e f6aa 6f3d 9978 323e
00000310: 71d0 963d 604d 413e 8e70 a13e d113 5ebe
00000320: 6469 21bf a51a 94bd e579 aebe 6941 69bf
00000330: 11eb ed3e 6b0b 983e 9348 c83e 289a 623e
00000340: 401e 453c 2010 bfbe 1089 09bd 477f e7bd
00000350: bb83 cd3e e543 56be 5de7 053e 7cfb c13e
00000360: b54e f7be 2eda ba3e c4cd 373f dd48 4f3d
00000370: 679a 8ebd 78e4 653e f2e6 a6be fc55 d93e
00000380: c2c8 b8be 790c d93e d836 d23e 2634 2f3f
00000390: d729 3f3e 1145 003f efc1 ad3e d6d6 fabd
000003a0: 81ce 233e 5fbb 603e dcb3 75bb 6a44 ba3e
000003b0: e585 18bd 3168 2b3e fa97 4bbf 864a a93e
000003c0: d878 02bf 0f69 7cbd bc66 b13e 8195 7dbf
000003d0: a629 f93e 130d b4bd 1af6 a93e 7d16 243e
000003e0: 2bfc b53d 8841 f43c 4aa8 a0be ecbf 7e3e
000003f0: fa65 223e 3848 583e 1425 40bf ba25 343d

decoder.6.bias f4 [8]
-0.44587824 -0.5649951 0.2604198 0.6931545 0.51028436 0.6313485 -0.1852724 -0.010729941
00000000: 274a e4be 85a3 10bf be55 853e 9372 313f
00000010: ffa1 023f 0ea0 213f 0cb8 3dbe a2cc 2fbc
